checkpoint/critic.pth (torch, 556734 bytes, 5 tensors)

model.0.weight f4 [64, 1, 4, 4]
000000 d4 1a 3c 3e c0 f6 9b bd 29 79 d1 3c 61 ae 0f 3e
       0.18369609 -0.07615423 0.025570469 0.14031364
000010 8a 5e 52 be 68 de 9e bd fd 99 ed bd 3b 4d a5 bd
       -0.20543876 -0.077572644 -0.116016366 -0.08071371
000020 51 27 58 3e 90 10 a9 3e 7b 0f 25 bd fe fe bd 3c
       0.21108748 0.3302045 -0.040297966 0.023192879
000030 b1 c4 85 be 0d 20 8d bd 83 09 83 3e 27 6d ae bd
       -0.26126626 -0.06890879 0.25593194 -0.08516913
000040 13 0e f9 bd a0 43 7a 3d 01 1d 0e 3d d9 a5 37 3d
       -0.121608876 0.06109965 0.03469563 0.0448359
000050 88 93 69 3e 5b a9 cf be b9 af ba 3d d9 9e 0e be
       0.22810185 -0.40558895 0.09115548 -0.13927783
000060 11 4a a5 3d f4 5c 54 3e 11 2c 8e be a2 6e 4f 3e
       0.08070768 0.20738584 -0.27767995 0.20257047
000070 10 a7 00 be 09 a1 5e 3e 8b 82 8b bb 57 59 49 bd
       -0.1256373 0.21741118 -0.0042575053 -0.049157467
000080 53 6b 9a bb e2 0c ba 3d 1c 7f 36 bc f3 22 69 3e
       -0.004712501 0.090844885 -0.011138704 0.22767238
000090 e8 a3 c8 3d 80 95 86 3d 9f 4f 36 3e 2e 7e 0f be
       0.09796888 0.065714836 0.1780381 -0.14012977
0000a0 b5 98 81 3e c0 16 f6 bd 54 b9 e2 bc 48 77 52 be
       0.2531182 -0.12016058 -0.027676262 -0.20553315
0000b0 2e b5 60 3e ac 15 f3 bd 5f 31 e6 bd 0c 27 1b 3c
       0.21944115 -0.11869368 -0.112398855 0.009469759
0000c0 b9 76 28 bd 7e 28 fe be dd 3b fe be 1a 7c c2 3a
       -0.041128848 -0.49640268 -0.49655047 0.001483801
0000d0 d0 8f f3 3c 22 0c 88 3c 9d 2e 41 bd 53 18 00 be
       0.029731661 0.016607348 -0.047163595 -0.12509279
0000e0 d4 80 6a bd b4 1a 90 3e 07 64 9a 3e 2b 5f aa bd
       -0.057251766 0.28145373 0.3015444 -0.08318933
0000f0 04 df 27 be 94 2c 17 3e ac 61 68 3e fd ba 83 bd
       -0.16393667 0.14763099 0.22693509 -0.064321496
000100 8f 8b 63 3e d7 69 54 3e 31 c1 52 3c 63 ff cd bb
       0.22221206 0.207435 0.012863443 -0.006286548
000110 8c e1 67 3e d9 3b 56 3e 5c 35 0b 3e e5 43 8d bc
       0.22644633 0.20921268 0.13594574 -0.017244289
000120 f9 b9 96 3d 47 8c 38 3e 98 78 9a 3e 8a d4 ac 3d
       0.0735969 0.18022262 0.3017013 0.08438976
000130 c3 50 50 bd 8b 91 26 3e b1 4b 59 3e cb 8e fe 3b
       -0.05085827 0.16266458 0.2122028 0.007768487
000140 3a 2a c2 bc 17 42 2e 3e 66 cd 4e 3e 6c 7d 5b 3e
       -0.023701776 0.17017399 0.20195541 0.21434563
000150 19 c5 4d 3d 58 71 39 3e c2 5b 62 3e f4 91 3f 3e
       0.050236795 0.18109643 0.22105315 0.1870802
000160 98 84 14 bd 99 c3 ae be 7d 3b 8f be b6 a0 82 bd
       -0.036259264 -0.34133604 -0.27975073 -0.063783094
000170 96 08 9e 3c 9a a9 09 be 2c 3f 24 be cb f8 f9 bb
       0.019291203 -0.13443604 -0.16039723 -0.0076285354
000180 da 07 b1 3d f3 5e a5 3d 5e f3 5a bd d8 29 0e bb
       0.08644076 0.08074751 -0.05345475 -0.0021692421
000190 d7 b3 74 3e 4d b6 7f b9 ce ae 16 3d d5 4e 34 bb
       0.23896728 -0.00024386607 0.0367878 -0.0027512808
0001a0 28 66 0f 3d 9e 81 05 3c 6d 67 82 3a 4e aa 83 bd
       0.035009533 0.008148579 0.0009949036 -0.064289674
0001b0 ee 9c 93 be 76 2a 77 be 94 f5 fa be 00 96 df be
       -0.28830665 -0.24137291 -0.49015486 -0.43669128
0001c0 67 3c 07 3e 92 21 2f 3e 1b 7c 83 3e 9a 98 03 3e
       0.13206635 0.1710265 0.25680622 0.12851182
0001d0 0e a8 37 3d 1d 3c 09 3d 04 a9 7e 3d 6d ca c9 bc
       0.044838004 0.033504594 0.062172905 -0.024632657
0001e0 34 0f 51 be 25 f7 b7 be 26 9c d8 be 6f e0 d3 bd
       -0.20415956 -0.35930744 -0.42306632 -0.10345542
0001f0 50 73 ae 3d ed b8 db 3d fe 44 50 3e 85 76 cf 3d
       0.08518088 0.10728631 0.20338818 0.10130028
000200 d0 8d 6c be 4c df 01 bf bc a5 73 3e fd 3f 28 3d
       -0.23100972 -0.5073135 0.23793691 0.04107665
000210 76 cb 96 be ff a4 6f be a1 8e 0e 3e 33 ab 60 3d
       -0.29452103 -0.23402785 0.13921596 0.05485077
000220 05 b2 26 3e 7b 4a d1 3d 38 58 d9 bd 10 b7 76 bd
       0.16278847 0.10219284 -0.106125295 -0.060233176
000230 9c 78 31 3a 72 28 87 3c a4 3c a5 bd 79 a2 f9 3c
       0.00067699864 0.016498778 -0.08068207 0.03047298
000240 5c 1a 8e 3c a3 e7 85 3d 4b 34 26 be 1f c1 e2 3d
       0.017346554 0.06538322 -0.16230886 0.11071991
000250 e7 27 36 3e 06 a2 ab be d8 c1 5e 3d 60 88 b3 3d
       0.17788659 -0.33522052 0.054384083 0.08766246
000260 36 80 94 be 6e bb 8d bd ce b1 3d 3e 8d 84 c4 3b
       -0.29004067 -0.06920515 0.18524858 0.0059972466
000270 33 39 c8 3d 51 be 82 3e dd 2f 41 3d 64 c8 ab bc
       0.09776535 0.25535825 0.047164787 -0.020969577
000280 81 0a 8a 3c b5 5d d9 bd b8 c3 ec 3d fb 7d e4 bc
       0.016850712 -0.10613576 0.11560768 -0.027892103
000290 14 cb 0d be 31 32 a0 be 80 ee 8a 3e 72 49 23 3e
       -0.13847 -0.31288293 0.27135086 0.15945986
0002a0 2f cf cf bd ed 07 84 be c0 e0 9f 3e d3 82 30 3d
       -0.10146939 -0.25787297 0.31226158 0.043093514
0002b0 29 3c 43 be 97 38 59 be 5e a2 6c 3e 4d b7 1a 3e
       -0.19065918 -0.21212994 0.23108813 0.15108986
0002c0 78 99 e6 3d d4 b2 31 3e 67 51 42 bd 64 5a 47 bd
       0.112597406 0.17353374 -0.047440913 -0.048670188
0002d0 29 ba 3c 3d 2d d5 6d be 49 c1 76 be aa 3f 9c 3d
       0.046075974 -0.23225851 -0.2409717 0.076293305
0002e0 de d6 9c 3e b2 27 60 3e 50 fd 57 be ee a2 0f be
       0.3063268 0.21890143 -0.21092725 -0.14026996
0002f0 6c 72 64 3c fe 99 0e 3e 4a 6d 43 be b1 19 b9 3d
       0.013943296 0.13925931 -0.19084659 0.09038103
000300 ef b1 3d 3e 0e 32 9f be 95 47 8f be 61 fa 57 3d
       0.18524908 -0.31092876 -0.279843 0.052729014
000310 48 ef bd 39 e1 ad e0 be 14 99 2e 3d d7 f7 39 3d
       0.00036227168 -0.4388266 0.042626455 0.045402374
000320 36 b1 40 bd 31 52 9e be f3 fd b5 bc b1 70 43 3d
       -0.047044 -0.30922082 -0.022215819 0.047714893
000330 53 57 90 3c cf 4f 3d be d5 f7 dc 3d 06 72 a1 3d
       0.017619764 -0.18487476 0.10789458 0.07883076
000340 df 5f c7 bd c3 72 95 bd 80 38 42 be 36 12 a2 bd
       -0.09735083 -0.0729728 -0.18966866 -0.0791363
000350 84 54 a3 bd 21 40 1f bc 04 6b 57 bd 90 4b 1e be
       -0.079751045 -0.009719879 -0.052592292 -0.15458512
000360 6b ce ea bd 47 aa 19 be 82 9f 2a bd b2 1f e2 bd
       -0.11465152 -0.15006362 -0.041656025 -0.11041202
000370 5d d2 8b bd 3a a1 0c be 91 23 59 bd 7b 41 7b bd
       -0.06827233 -0.13733378 -0.053012434 -0.061341744
000380 33 d0 fb 3d 33 e7 6a 3e 9a 53 36 3e d9 73 bb bd
       0.1229557 0.22939758 0.17805329 -0.091529556
000390 a3 d8 23 be 01 48 08 3d 49 f8 56 3e 5e f3 86 3e
       -0.16000609 0.033271793 0.20993151 0.2635755
0003a0 f3 97 9a be 21 17 99 bd 7f 24 d0 bd b3 e1 f0 3d
       -0.30194053 -0.074751146 -0.10163211 0.11761799
0003b0 17 ec b7 3c 64 c2 6b be a3 9e 1e be 55 96 12 3b
       0.022451444 -0.23023373 -0.15490203 0.0022367437
0003c0 7f 26 f5 3d b8 5b a9 3c 99 6d 7f 3d 93 65 9e 3d
       0.11970233 0.020673618 0.06236038 0.077342175
0003d0 cd 8b ea be 05 c6 b5 be e4 ef 60 3d 6e 93 d8 3d
       -0.45809785 -0.3550264 0.054916278 0.10574995
0003e0 83 e8 eb 3c 5f 22 0f 3e aa 19 f0 3c c2 07 0b be
       0.028797394 0.13977955 0.029309113 -0.13577178
0003f0 6f c5 9d 3e 8c de 45 3e b6 35 17 be d9 ef 41 bd
       0.30814692 0.19323176 -0.14766583 -0.047347877

model.0.bias f4 [64]
000000 68 48 23 3e 1c 4c 4f bb 38 99 ce 3e 51 2e 28 bd
       0.1594559 -0.0031631058 0.40351272 -0.041059796
000010 1f d8 17 3f 58 00 41 3e 0a 4b bc 3e b7 02 5a 3e
       0.5931415 0.18847787 0.36776 0.21290098
000020 84 17 4d 3d f8 97 75 3e a9 a2 43 bd 0e e2 94 3d
       0.050071254 0.23983753 -0.047762547 0.07269679
000030 03 44 dd bc 2e 2b 2f 3d 09 00 82 3d d2 2f 0f bb
       -0.02700997 0.04276579 0.06347663 -0.0021848571
000040 ec 22 bb 3d 4b 65 4c 3d e5 e5 07 3f 70 04 0a 3e
       0.0913752 0.049901288 0.53085166 0.13478255
000050 f8 fb 2b 3e ce 72 fc 3d 14 1a 09 bc 6b 4d 92 3e
       0.16795337 0.12326585 -0.008368034 0.2857469
000060 08 50 00 bc fa 17 1a 3f a1 bc 41 3d 98 02 63 3d
       -0.007831581 0.60192835 0.04729903 0.055422395
000070 b0 ba 84 3d 6e b4 14 3c 8e 20 24 3b e0 a7 24 3c
       0.0648092 0.009076221 0.0025043818 0.01004979
000080 d5 b2 a3 3e 14 5a a4 3b a6 9c a9 ba ce 2e ef 3d
       0.31972376 0.005015621 -0.0012940362 0.11678849
000090 1a 1d 1b 3d 53 eb 8e 3e 78 a4 6e 3a 11 d9 07 3e
       0.03786955 0.27913913 0.0009103487 0.13266398
0000a0 0c 3e 8a 3c 45 3b f1 3e ab 8b c6 3d fa 50 ab bc
       0.01687529 0.47115532 0.09694608 -0.020912636
0000b0 6f c9 87 bb 29 52 be 3c 06 c8 9c 3c aa 7a 4d 3e
       -0.004143886 0.023232536 0.019138347 0.20066324
0000c0 3d 3b d7 3e b2 94 86 3d b7 a7 6f 3e 86 e9 45 3d
       0.42037383 0.0657133 0.23403822 0.04831841
0000d0 ea da 32 3c 76 c1 a6 3d 10 05 f9 3d 44 4f 78 bc
       0.010916451 0.081423685 0.12159169 -0.015155617
0000e0 13 ce 42 3d 15 19 1c bc 7f 43 1e 3e 2d 68 a4 3c
       0.04755981 -0.009527464 0.15455435 0.020069206
0000f0 b1 ab a5 3d 20 d4 6b 3e c5 a5 91 3c 3d 73 ff 3e
       0.08089388 0.23030138 0.01777924 0.49892607

model.2.weight f4 [128, 64, 4, 4]
000000 43 2c 8f bc 23 df 55 3d 49 02 10 3d e3 13 4e 3c
       -0.01747716 0.052214753 0.03515843 0.012577984
000010 9a 27 84 bc 09 aa 85 bd 5d 47 a2 3c 29 b7 ec bc
       -0.016132165 -0.06526572 0.01980942 -0.028895931
000020 52 04 6f bd 32 3e 5d bd dd 7e 63 bb ec 12 03 3c
       -0.05835373 -0.054014392 -0.0034713068 0.008000117
000030 3d 11 27 bd 94 4b 18 bb cf 3a a6 3d d0 92 f6 3c
       -0.040787924 -0.0023238407 0.081166856 0.030099303
000040 52 f5 22 bd e7 7a 3e 3d a2 48 7b bc 3c 3f 2c bd
       -0.039784737 0.046503928 -0.015337141 -0.042052492
000050 0d 74 89 bd 1c 9a 8f bd 72 6d a0 3c 2b bd aa bd
       -0.06711588 -0.07011816 0.019583438 -0.08336862
000060 74 24 29 3d 83 b6 e7 bd 59 f4 30 bd df 08 8d bd
       0.04129453 -0.11314108 -0.043201778 -0.06886458
000070 72 3e 76 bc 18 54 52 bd 19 52 48 3d 30 3d 43 3d
       -0.015029537 -0.05134973 0.04890642 0.047665775
000080 37 eb c0 3b 9a f3 d9 3d 3c 86 93 3c e1 27 90 bc
       0.005887415 0.106421664 0.018008344 -0.01759714
000090 b3 e6 36 3c e3 55 d8 3d 2b 14 94 bb a6 e2 58 bd
       0.011163401 0.105632566 -0.004519006 -0.052950524
0000a0 d9 92 05 3d dd c0 d1 3a d7 4f 9f bc b7 3c a4 bc
       0.032610748 0.0016002912 -0.01944725 -0.020048482
0000b0 5b 53 28 3b b1 43 be bd bf 24 8d bc e6 82 35 bc
       0.002568445 -0.09290255 -0.017229436 -0.011078572
0000c0 70 55 fd 3c 5b 01 bb 3c fd c6 c8 bc 25 02 5d bb
       0.030924529 0.022827795 -0.024508948 -0.0033723202
0000d0 0d 8c 67 b9 4d 76 47 ba 30 49 34 bd 14 51 57 bd
       -0.0002208205 -0.0007608876 -0.04401511 -0.052567557
0000e0 ce 92 bf 3c 47 b6 df 3c e6 2e d6 bd ba bc d6 bd
       0.023385432 0.027308596 -0.10458164 -0.104852155
0000f0 4b 25 48 3d b3 5a 59 3c 87 6c 8e bc bb 03 1a bd
       0.04886369 0.013266253 -0.017385734 -0.037601214
000100 f3 01 1a 3d e9 4d 76 3d a3 8b 9f 3d de b8 07 3e
       0.037599515 0.060132895 0.077903055 0.13254115
000110 5d e7 18 3d c5 cd cd 3c c6 6a b2 3c 6f 3d 21 3d
       0.03733002 0.025122533 0.02177943 0.03936523
000120 c5 11 ca 3c 3a 24 94 bc 07 c9 a5 3c 7d 80 8d 3d
       0.024666676 -0.01808368 0.020237459 0.06909273
000130 bd 11 fd bd 73 6c 53 3c 7a 14 0e bd 40 b0 f1 3c
       -0.12356899 0.012904274 -0.034687497 0.029502988
000140 3d 99 8a bd 45 aa 41 3b 75 ad dc 3c 87 ec 8f 3d
       -0.06767509 0.0029550951 0.02693818 0.07027536
000150 f5 0e f6 bc 7b 4f a2 3c 9f 1d ef bc 9c 83 71 3d
       -0.030036429 0.01981329 -0.02918893 0.058963403
000160 be 26 ce 3d 23 5d 42 bd e3 8a 82 bb 36 46 ab 3d
       0.10065983 -0.047452103 -0.0039838417 0.08363001
000170 69 37 d9 3b 7a 9a d9 3c 76 30 9d 3d 7c fd 3d 3c
       0.00662892 0.026562918 0.07675259 0.01159608
000180 7e db a1 bc d7 9d a9 bc 30 4c 3b bc 4e 62 8c bd
       -0.019757982 -0.020705147 -0.011431739 -0.06854688
000190 7e e3 27 3d 6d 4c 9a 3c 0f 91 7d bd 79 00 c3 bb
       0.040988438 0.01883527 -0.061905917 -0.005950984
0001a0 0b 05 92 3c db 62 97 bc 39 88 25 3c 09 75 b3 bc
       0.01782467 -0.018479755 0.010103279 -0.021906393
0001b0 51 83 48 3d 4d cf e5 bc eb 54 28 3d c7 8e 23 bd
       0.048953358 -0.02805295 0.04109661 -0.039931085
0001c0 c1 63 e7 3b 1c 54 46 bd 38 e0 f2 bc 59 4c ed bc
       0.007061452 -0.048420057 -0.029647931 -0.02896707
0001d0 38 22 18 bd ae 8f 2f bc fd c3 dc bb 1a fa 27 bd
       -0.03714201 -0.010715408 -0.006737231 -0.04101
0001e0 11 97 3c 3d 8b 50 9b bb 0c 01 1e bd 20 ee 19 3d
       0.046042506 -0.004739826 -0.038575217 0.03758061
0001f0 58 65 93 3d 3e 34 ca 3c 91 40 3a 3d 2c e5 8c 3c
       0.07197064 0.024683114 0.04547173 0.017199121
000200 45 5f 13 3c 09 39 26 bd 92 96 6f bc d6 5d 41 3c
       0.008994882 -0.040581737 -0.014623301 0.011802157
000210 d2 37 a3 bc 17 7d 41 bd 24 71 43 bd 42 4c ce bc
       -0.019924078 -0.047238436 -0.04771532 -0.025182847
000220 de 7c cc 3c 86 0c a4 3c 7a b5 83 3c 90 e1 76 bb
       0.024961885 0.020025503 0.016077746 -0.0037671067
000230 c0 9a 18 bc 30 c0 2a 3d 48 66 26 bd 5c 7c 0d 3d
       -0.009314239 0.04168719 -0.040624887 0.034542426
000240 95 75 25 3c c3 f5 3c 3d d4 51 8b bd 0c 5b 8a 3c
       0.0100988345 0.046132814 -0.06802717 0.016889118
000250 f4 da 52 bc c6 0e 05 bc 52 8c 06 bc 3f 14 03 bd
       -0.012869585 -0.008121198 -0.008212166 -0.03200173
000260 f8 ff 33 bd 79 aa 87 3d 29 a2 9e 3c 5c 5e ef 3c
       -0.043945283 0.06624312 0.019364433 0.029219799
000270 19 6b f8 bc d9 e7 97 bc e5 a2 89 bb d8 4a 5f bd
       -0.030324506 -0.01854317 -0.0042003267 -0.054514736
000280 67 e2 6a bc 05 81 2f 3c 2e 23 6e 3d 76 6d ad bc
       -0.014336205 0.010711913 0.05813902 -0.02117036
000290 cb 34 14 3d 18 f4 06 bc 3a f0 72 3c a5 73 0f bd
       0.03618316 -0.008236907 0.014827782 -0.035022397
0002a0 90 d3 b9 bb 6d 5f 54 bc 82 13 07 3d b6 29 1a 3d
       -0.005670972 -0.012962204 0.03297759 0.037637435
0002b0 a0 f9 1e 3c 50 10 15 bd 23 48 e6 bb 5d 29 79 bc
       0.00970307 -0.03639251 -0.0070276423 -0.015207616
0002c0 cb 83 26 3c b1 58 20 bd e8 9a 3b 3d 47 1b f4 bc
       0.010163258 -0.039147083 0.045802027 -0.029798163
0002d0 22 e3 35 bd 1e f2 3a 3d ba 7d a0 bd a7 23 60 bd
       -0.044406064 0.045641057 -0.078364804 -0.0547215
0002e0 5c 98 55 bd 78 0f cb bd 02 e7 2a bc d6 5e 0e 3d
       -0.052147254 -0.0991506 -0.010431053 0.03475841
0002f0 49 bf 0c bd 8f 24 e6 bd 9f 88 07 3d bc 72 18 3d
       -0.03436211 -0.11237442 0.033089276 0.037218794
000300 46 7f 12 3d db 3e 75 3c 56 16 20 3a 24 7c 62 bd
       0.03576591 0.014968599 0.0006106844 -0.05529417
000310 d1 78 82 3d cb 87 c1 bc 1e 7f 02 bd ae 37 87 bd
       0.063707 -0.023624321 -0.03185951 -0.06602417
000320 a1 55 73 bd 41 0e 2c bd d9 bd 27 3b 92 44 06 bc
       -0.059407834 -0.04200578 0.0025595336 -0.008195059
000330 dd dd 4b bd 3e 2c 27 bd 54 64 ad bd f5 32 26 3b
       -0.049772132 -0.040813677 -0.08466402 0.0025359963
000340 25 e5 a2 ba 70 82 b5 3c f2 3a ba 3b 67 ba 3d 3d
       -0.001242791 0.022156924 0.0056832964 0.046320345
000350 6a 42 46 3c 17 30 25 3c 9d 69 d6 3b 8e 9e d9 bb
       0.012100795 0.010082266 0.006543352 -0.0066412156
000360 4c 44 f6 3a cb 77 60 3d 28 15 ce 3c fb 88 69 3d
       0.0018788665 0.054801743 0.025156572 0.0570154
000370 cf de 2d 3c 2a ab 28 3d 4d da 47 3c b8 5d 78 bc
       0.010612204 0.04117886 0.012198043 -0.015159063
000380 ca 89 39 bc 3d e2 a4 bd 9f c7 0a bc 2b 13 53 3d
       -0.011324355 -0.08050964 -0.008470445 0.051531952
000390 dd 21 09 bd fc ce d5 bd 0b ba 62 bd 33 0b 5f bd
       -0.03347956 -0.1043987 -0.055353206 -0.05445404
0003a0 eb 65 fb bc 09 04 40 bd a7 96 b1 3c 3e df 5c bb
       -0.030688247 -0.04687885 0.021678282 -0.0033702399
0003b0 99 87 ce bd 2e 6e 0e 3c c1 1a 3f 3d 68 87 48 3d
       -0.10084457 0.008693261 0.046656374 0.04895726
0003c0 b9 25 ba bd 49 aa c3 bc 95 90 3d 3d 49 45 3a bd
       -0.09089226 -0.02388491 0.046280462 -0.04547623
0003d0 29 6a 67 bd 64 8f 0f bc 9e c2 4c bd b4 f1 bb bd
       -0.056497727 -0.008762214 -0.04999029 -0.091769606
0003e0 d2 23 85 3c 98 4c a2 3b c8 cc 41 ba 1d 4b 62 bd
       0.016252432 0.0049529783 -0.00073928805 -0.055247415
0003f0 c1 fa 28 bd aa 6d 93 3d fd aa 40 3d 59 41 a1 3d
       -0.041254763 0.07198651 0.047038067 0.07873792

model.2.bias f4 [128]
000000 b0 69 1d bd 90 75 a4 bd 88 5c 90 3d 1c b9 58 bd
       -0.03843087 -0.08030236 0.07048899 -0.05291091
000010 81 90 18 3c 23 34 4b bd 20 2f 3f 3d 10 12 c1 bd
       0.009311796 -0.04961027 0.0466758 -0.09427273
000020 f5 6a 9e 3c 15 63 97 bd 8d fa db 3c 39 56 17 3d
       0.01933811 -0.07391945 0.02685287 0.036947463
000030 f9 d9 07 3d ff b1 fe 3d ac d5 1e 3e 64 bc 96 3d
       0.03316686 0.12436294 0.15511197 0.073601514
000040 dc d0 ef 3d 57 e9 1a 3e ac 68 7d bd 52 88 7c bd
       0.11709759 0.15128075 -0.0618674 -0.061653443
000050 21 c6 15 3e 0b 0a 1e 3c 62 b4 8f bc f3 b8 89 3b
       0.14626361 0.009645949 -0.017542068 0.004202956
000060 ae f5 fe 3c 45 24 01 b8 68 a3 ac bc af b5 49 bd
       0.031123009 -3.0789775e-05 -0.021074012 -0.049245533
000070 33 7e ed 3d a4 16 43 bd 29 02 d6 3c 20 44 6f bd
       0.11596336 -0.047629014 0.026124077 -0.05841458
000080 22 37 db 3d dd f9 f6 3c 23 17 e6 3d bd 6c d7 3c
       0.10703875 0.030148441 0.11234882 0.026296968
000090 0c ea 04 be 59 52 ff bc ad c7 3b 3d 98 f0 e1 3c
       -0.12979907 -0.031167196 0.045844723 0.027580544
0000a0 11 db 2f 3e 38 14 af bd 76 81 aa bd d2 15 9b 3d
       0.17173411 -0.08548778 -0.08325474 0.07572521
0000b0 ed af 7a 3d 54 0e 56 bc 9b ad 43 3d 51 57 8a 3e
       0.061202932 -0.0130649395 0.047772985 0.27019742
0000c0 38 51 8b bd 3f 8a 47 3d f4 48 fe bc 11 85 a3 3c
       -0.068026006 0.048715826 -0.031040646 0.019960912
0000d0 14 1e bb 3d 6d b4 b0 3d e6 61 c7 3e 15 64 95 3d
       0.09136596 0.086281635 0.38941878 0.0729448
0000e0 e9 14 8c bd 6c 6e 3c bc 11 ab 07 3e a3 f1 06 3e
       -0.06839926 -0.011500936 0.1324885 0.13178115
0000f0 f9 5b f0 3c ca 2a 77 bd 3d 7e e9 3c 01 9e 3d 3e
       0.029340731 -0.06034354 0.028502578 0.18517305
000100 5f 26 c2 bd c1 b8 05 3e 22 3a 0f 3e a9 89 24 3c
       -0.09479975 0.1305876 0.1398702 0.010042586
000110 da f6 ee 3d 89 88 13 bd b9 4c ad bd ac 26 84 3d
       0.11668177 -0.036018882 -0.08461899 0.064526886
000120 bf 04 d2 3d 9d a2 16 bd 4f 3c f4 3d 12 5f 48 3d
       0.102548115 -0.036776174 0.119255655 0.04891879
000130 d5 89 4a be 26 60 a1 bc cc 66 97 bd 74 9a fc bd
       -0.19779141 -0.019699167 -0.07392654 -0.12334147
000140 75 8e e6 3c 60 b1 9f 3d 08 45 47 3a 3b fa 1e 3c
       0.0281441 0.077975035 0.0007601534 0.009703214
000150 3e 6f 92 3d 5e e8 c1 ba cd 38 3c bd 65 9d 2b 3e
       0.07150124 -0.0014793982 -0.045952607 0.1675926
000160 30 77 e8 3d dc 93 34 bd e5 44 1a be 5f cf 05 3e
       0.11350858 -0.044086322 -0.15065344 0.13067387
000170 a9 c5 7b bd 37 c7 c8 3c fd 33 bd 3b db 35 3b bd
       -0.0614678 0.024509056 0.0057740198 -0.045705657
000180 9b 7b 77 3b d4 5d 3d 3e ed 68 4d bd aa f4 8d bc
       0.0037762884 0.18492824 -0.050148893 -0.017328579
000190 1d f7 d9 3c 83 cc be 3d 63 3e 87 3d 42 56 7e bd
       0.02660709 0.09316351 0.06603696 -0.06209398
0001a0 ff ac 5d 3d fc 44 57 3d 9a f8 21 3e b2 81 b2 bc
       0.05412006 0.052556023 0.1581749 -0.02179036
0001b0 ca 6b 3f bb 3b b0 e6 bc fd 40 ac 3d 96 fa 71 3d
       -0.0029208534 -0.028160205 0.08410833 0.059076868
0001c0 e6 ad 6e 3d 62 bf c7 bc 51 7c aa 3b 2b d5 f4 bc
       0.05827131 -0.02438325 0.005202808 -0.029886803
0001d0 3f 89 5e 3d 60 c1 29 bd b7 80 d5 3d 8e 11 1e 3e
       0.054330107 -0.041444182 0.10424941 0.15436384
0001e0 a7 51 0a be 2f 59 b3 bc 40 1c 1e 3d 36 a9 10 3e
       -0.1350771 -0.021893112 0.03860116 0.14127049
0001f0 c7 d5 cc 3b 35 b8 cd 3c 50 11 08 3d b8 15 89 3d
       0.00625107 0.02511225 0.033219635 0.06693596

model.5.weight f4 [1, 6272]
000000 64 5e 86 3d 01 b9 43 3c 8d 84 1c 3d fd ea 17 3c
       0.06560972 0.011945964 0.038212348 0.009272334
000010 0d ec 7a 3c b6 d2 33 3d 94 37 db 3c f4 c3 8a bc
       0.015315068 0.04390212 0.0267599 -0.01693914
000020 f0 29 83 3c 11 97 18 3d 3c cc 76 3d 04 b6 3f 3d
       0.016011208 0.037253443 0.060253367 0.046804443
000030 0e ce 54 bc 42 58 c3 bc d0 b1 0a 3d 3b ba 89 3c
       -0.01298858 -0.023845796 0.03386098 0.016812434
000040 df ff 89 bd 8b bb 06 be 20 9d 10 be 56 d7 17 bd
       -0.06738257 -0.1315748 -0.14122438 -0.037070595
000050 2b 02 d2 bb 7b ff 11 3d 2c 69 38 3d af e3 b5 bc
       -0.00640895 0.035644036 0.045022175 -0.022203295
000060 12 4a dd bd f0 61 63 bd 02 12 da bc 4f c2 1d bc
       -0.108051434 -0.055513322 -0.026619915 -0.009628846
000070 d7 1a ab bd 2d fa cf 3c 2e 59 87 bd 3e 2f d1 bd
       -0.08354729 0.025387848 -0.066088066 -0.10214089
000080 10 89 bf bd a7 3e 8b 3c 9d 13 56 bc cb 06 5e bb
       -0.093523145 0.016997648 -0.0130662 -0.003387856
000090 e7 05 7b 3d 98 c5 a8 bd 02 5c 10 bd ad 60 81 3c
       0.061284926 -0.08240813 -0.035243995 0.015793169
0000a0 66 3b b1 3c af 7f 42 3c bb e8 0c bb 6d b1 bc 3d
       0.021634769 0.011871262 -0.0021501023 0.09213529
0000b0 b7 ed 66 3d e3 d2 ab 3c 92 5f ba 3d 8c 99 c4 3c
       0.056379046 0.020974582 0.0910026 0.023998998
0000c0 03 c4 23 3c 24 52 22 be f2 06 af 3c 55 b5 22 3c
       0.009995463 -0.15851647 0.021365616 0.009930928
0000d0 36 48 05 bc 4d c3 42 bc 15 ce 59 bc 3c 02 33 bc
       -0.008134892 -0.011887384 -0.013293763 -0.010925826
0000e0 48 bc aa bb c0 c4 4e bc 51 8d 26 3c f5 9c b5 3d
       -0.005210433 -0.012620151 0.010165528 0.08867828
0000f0 cd aa d1 3c 09 5f 0e bc a7 76 77 bd 1d ef 6d 3c
       0.02559414 -0.00868965 -0.06041589 0.014522341
000100 2d 8d 50 bc da 71 0f 3d f7 27 c8 3d a1 43 23 3d
       -0.012728971 0.035020687 0.09773248 0.039859418
000110 1e 39 d4 3b f0 08 1a bd 8b 0f cf 3b 4a d1 7c 3c
       0.0064765355 -0.03760618 0.0063189915 0.015430758
000120 68 95 7b 3e 24 8b 9c 3d c9 16 c9 3b 0d 0c 9a bd
       0.24568713 0.076437265 0.0061367494 -0.0752183
000130 96 36 97 bd 0f 63 47 3c 1e 5e a4 3c f1 45 0f 3e
       -0.07383458 0.0121696135 0.02006441 0.13991524
000140 68 58 c3 3d 39 5f c4 bd 51 d8 b0 3d e0 91 90 bd
       0.095383465 -0.09588475 0.08635009 -0.070590734
000150 64 d8 d5 3a 99 fe 69 3c b6 32 8d 3d f0 32 0f 3e
       0.00163151 0.014281892 0.06894438 0.13984275
000160 c9 3c c2 bc 6f aa a3 3b 1d fe db bd 18 e8 80 bc
       -0.023710625 0.0049946825 -0.10741828 -0.01573567
000170 9e 58 ba 3b 0f 5d 03 3d a3 4e 04 bc 3d 49 0b 3d
       0.0056868335 0.03207117 -0.008075389 0.034005392
000180 4f 17 ba 3c f9 ca da bb 4c 2e 1d 3c b7 dd 15 bd
       0.022716193 -0.0066770283 0.009593558 -0.036588397
000190 af e7 0d bd 36 35 d8 3c c6 31 05 3d 95 0c 67 3c
       -0.03464478 0.02639256 0.03251817 0.014102121
0001a0 17 84 b9 bc 1d 4d 64 bc b5 0c 12 bb 7d b8 ea 3a
       -0.022645993 -0.013934401 -0.0022285406 0.0017907765
0001b0 97 ad 47 3c ff 25 67 3d 28 c9 82 3c 97 44 1e bd
       0.012187383 0.05643272 0.01596506 -0.03863963
0001c0 0c df 6d bd f8 db b2 3c 95 5a ec 3b 52 b1 b1 3d
       -0.058074042 0.021833405 0.0072129467 0.08676399
0001d0 fa 5a 55 ba e1 d4 bd bc 27 ea c3 bc 94 4f 74 bd
       -0.0008138862 -0.023172798 -0.023915363 -0.059646204
0001e0 45 44 62 3c 0b 4c 31 bd 29 91 00 3e 1c 98 ca 3c
       0.013810222 -0.04328541 0.12555374 0.024730735
0001f0 63 ac ed 3c 3e af 50 bd 5f 8c ef bc d1 ec 25 3d
       0.029012864 -0.050948374 -0.029241739 0.04050905
000200 6b 6c 1a bc 54 e1 15 3d e1 71 96 3c 6f c0 95 3c
       -0.009425263 0.036591843 0.018364849 0.018280236
000210 25 b1 ef bc ce 56 5b bd 57 48 dd 3c d7 e0 41 bc
       -0.029259274 -0.05354958 0.027012033 -0.011833391
000220 3d 57 b8 bc 9c c5 43 3c e6 d5 96 bc fc a1 09 3c
       -0.022502536 0.011948969 -0.018412542 0.0084004365
000230 cc 5d 80 bc 6a 69 a7 bb 53 c0 65 bd 87 3e 98 bb
       -0.015669726 -0.005109002 -0.056091618 -0.0046461257
000240 c3 50 03 bc 31 2e a1 3c ae e1 54 bd e8 e5 93 bd
       -0.008014861 0.019675346 -0.051973037 -0.072215855
000250 10 0d 9f bc ee 04 b4 bc f9 63 cc bb e3 26 8c bb
       -0.019415408 -0.021975007 -0.0062375036 -0.0042770966
000260 ff a4 55 bd 7a 76 11 3b 20 d8 b3 3c 53 05 e2 ba
       -0.052159306 0.0022195862 0.021953642 -0.0017244018
000270 b0 23 26 3d c7 2d b7 bc 40 a5 87 bd 4d 7c 72 bd
       0.040561378 -0.022360696 -0.06623316 -0.059200574
000280 c6 c8 51 bd b4 b4 a3 3c de 67 b9 3c dd 1a ab 3d
       -0.051216863 0.019983627 0.022632536 0.08354733
000290 ee d5 57 3d 71 c6 e0 bd f6 2a d2 bd 95 45 26 bc
       0.052694254 -0.1097535 -0.102621004 -0.010148426
0002a0 0a 14 53 ba 5f fa e6 3d 6b e7 4b 3e 48 90 d2 bd
       -0.0008051997 0.11278223 0.19912498 -0.10281426
0002b0 9c 3b 08 bd 41 b9 84 bd 03 a3 43 bd 1d 9d a4 3c
       -0.033259973 -0.06480647 -0.047762882 0.020094449
0002c0 69 77 f8 3d 7b 2b 97 3e 14 7b ba 3d 6c 17 88 bd
       0.12132151 0.2952536 0.091055065 -0.06645092
0002d0 33 57 f5 bc 15 53 c5 bc c8 ad 0e bd 8b 46 ba 3d
       -0.029948806 -0.024087468 -0.0348337 0.09095486
0002e0 c0 4c 3b 3e 08 80 fe 3c b0 9d d1 bd 81 3d 38 bd
       0.18290997 0.03106691 -0.10235155 -0.04498053
0002f0 f1 61 40 bd 56 0b 91 bc 86 ec e5 3c 1a c0 a3 3c
       -0.046968404 -0.0177056 0.028066885 0.019989062
000300 26 10 2a 3b 62 ef dd bc ca 81 2d bc 7e 84 7a 3c
       0.0025949567 -0.027091686 -0.010590026 0.015290378
000310 3a 42 b3 3c dc 47 ad 3c ce a6 62 bd 9c 8d 3b bd
       0.021882165 0.02115243 -0.05533486 -0.045789346
000320 70 86 92 3c 5b 7b f5 3c 07 58 8f bc 66 71 8c 3c
       0.01788637 0.029966047 -0.01749803 0.017143916
000330 03 29 01 bb 82 53 cf bc 0f b8 d9 bc 48 46 e8 bb
       -0.0019708283 -0.025308374 -0.026577024 -0.0070884563
000340 60 31 20 3d 8b a3 fa 3c d8 58 76 3c c4 66 b5 3c
       0.039109588 0.030595561 0.01503583 0.022143729
000350 11 9a 58 bc db db e3 3a b2 fd 80 bc 8e c8 fb bc
       -0.013220326 0.0017384248 -0.015745971 -0.03073528
000360 5d 59 ca 3c f1 0f ea 3b 9d b9 03 bd 84 2f e0 3a
       0.024700815 0.0071430136 -0.032159436 0.0017104005
000370 48 c7 ee bc 34 63 45 bd 45 7c ee bc d8 9d 56 3d
       -0.02914776 -0.04819031 -0.02911199 0.052396625
000380 bc d9 cf 3c 98 7d 55 bd a4 e6 fc bc 63 5d b2 bc
       0.025372379 -0.05212173 -0.030871697 -0.021773046
000390 bc 71 04 bd 3b 51 97 bd a4 a2 a0 3c 89 07 ae 3c
       -0.032335028 -0.0738854 0.019608803 0.021243827
0003a0 fa 82 8e bd 83 66 3b 3a 99 90 02 3c 09 55 7d 3c
       -0.069585755 0.00071487593 0.007969045 0.0154621685
0003b0 ed 26 2e 3c d7 52 99 bc 86 69 02 bd 5d a5 36 3c
       0.010629398 -0.018716259 -0.031838916 0.011147824
0003c0 97 cd b6 3c 66 95 5c 3d ec 95 06 3d 98 4d 20 bc
       0.02231483 0.053853415 0.03285782 -0.009784125
0003d0 87 69 16 3b f5 05 77 3c 4b 5b e1 3c 06 7b 93 3b
       0.0022951083 0.015077104 0.027509352 0.0045007495
0003e0 a2 31 d1 bb cd c0 10 3c e9 c6 1b 3b a7 8d cc 3c
       -0.0063840905 0.00883503 0.0023769683 0.024969889
0003f0 6d 14 da 3c 0f 35 13 3d ca 3a 22 3b 14 14 2b 3c
       0.026621068 0.035939272 0.002475428 0.010441799
